importance_scorer_model.pth (torch, 209749 bytes, 13 tensors)

embedding.weight f4 [331, 64]
0.0 0.0 0.0 0.0 0.0 0.0 0.0 0.0
0.0 0.0 0.0 0.0 0.0 0.0 0.0 0.0
0.0 0.0 0.0 0.0 0.0 0.0 0.0 0.0
0.0 0.0 0.0 0.0 0.0 0.0 0.0 0.0
0.0 0.0 0.0 0.0 0.0 0.0 0.0 0.0
0.0 0.0 0.0 0.0 0.0 0.0 0.0 0.0
0.0 0.0 0.0 0.0 0.0 0.0 0.0 0.0
0.0 0.0 0.0 0.0 0.0 0.0 0.0 0.0
2.0669405 0.3813941 0.44360566 0.078062266 -0.52649564 -0.091508225 1.4355154 -1.7128913
0.5068147 -1.2116168 -1.5757418 -0.3958496 -0.028491031 0.35025728 -1.5868733 -0.58377135
-0.0018793414 -1.565797 -0.8803979 0.65778464 -0.08427036 0.74550664 2.4741602 0.83917713
-0.8890776 -0.19803773 -2.982068 0.02041722 0.1509313 -0.37818146 0.7506983 -1.3005587
-0.43070874 -1.2466224 -0.8251685 0.18976025 0.9847358 0.7453395 1.077967 1.2697878
-0.5463667 -0.14938822 -1.4033562 1.3854816 0.53381145 -0.7882375 -0.8160067 -0.62296534
0.5302421 0.973283 -1.3890111 -0.901651 -2.111478 1.2237893 -0.35482293 -0.6561623
-0.54577494 1.0049156 0.5655267 -1.8280464 -0.74134785 -0.7405573 0.49874112 -0.21245088
1.9824653 -1.4420264 -1.8633487 0.02166827 -0.012109759 0.7975178 0.038584545 0.8742837
1.41948 1.4968095 1.9259355 -0.6802299 1.8092451 0.082894355 2.3682761 0.040151283
0.1897941 -1.0127352 -1.1772947 0.41254398 -1.1993665 0.1975928 -1.0382744 0.24692926
-0.52518857 0.06327765 1.4662545 1.1010609 0.5742338 0.6011181 0.43481755 -1.860048
-2.561523 0.48811767 0.12582809 -2.8709042 0.4448903 -0.6181454 -0.68111706 0.77267796
1.317831 0.1043712 0.39255422 -0.66576195 -0.86495906 0.4451274 -1.0128834 -0.87637657
0.56880623 -0.042878915 0.4778922 -1.2732438 -0.096165866 -1.8959684 -1.4389497 0.28803524
1.1687732 1.2030256 0.44674113 -0.27449226 1.0303383 -0.47118577 0.0015093889 0.1057275
1.4800735 1.2937878 2.2398634 -0.53599817 -0.7759549 0.6304511 0.7738211 0.15239985
-0.6548198 0.6242078 0.29570505 -1.5900421 -1.6638803 0.55789113 -0.44396633 0.55412805
-0.42304942 0.9450345 -1.3585782 -0.24904446 -0.76331997 -0.19008267 0.39670408 -0.60360074
-0.027123746 -0.5873091 -0.051835246 -0.05694869 -0.61799383 -2.0832767 0.8260737 1.1089371
-1.0965149 -1.8483729 -0.38725188 0.79276025 -0.10279031 -0.88426137 -0.43513685 -0.3448188
-0.30918637 -0.43871382 1.4601506 -0.20645738 -0.39167523 1.1744063 0.5612511 1.6721207
-0.18932533 0.11576466 -0.18872698 -0.8800881 -0.06275507 -0.010208634 -1.1389737 0.4918255
1.2507561 0.03875401 0.17150216 0.09422938 0.031287577 -0.2158808 0.29204822 0.010546292
00000000: 0000 0000 0000 0000 0000 0000 0000 0000
00000010: 0000 0000 0000 0000 0000 0000 0000 0000
00000020: 0000 0000 0000 0000 0000 0000 0000 0000
00000030: 0000 0000 0000 0000 0000 0000 0000 0000
00000040: 0000 0000 0000 0000 0000 0000 0000 0000
00000050: 0000 0000 0000 0000 0000 0000 0000 0000
00000060: 0000 0000 0000 0000 0000 0000 0000 0000
00000070: 0000 0000 0000 0000 0000 0000 0000 0000
00000080: 0000 0000 0000 0000 0000 0000 0000 0000
00000090: 0000 0000 0000 0000 0000 0000 0000 0000
000000a0: 0000 0000 0000 0000 0000 0000 0000 0000
000000b0: 0000 0000 0000 0000 0000 0000 0000 0000
000000c0: 0000 0000 0000 0000 0000 0000 0000 0000
000000d0: 0000 0000 0000 0000 0000 0000 0000 0000
000000e0: 0000 0000 0000 0000 0000 0000 0000 0000
000000f0: 0000 0000 0000 0000 0000 0000 0000 0000
00000100: c148 0440 1646 c33e 4820 e33e 1cdf 9f3d
00000110: 6bc8 06bf aa68 bbbd f8be b73f 0640 dbbf
00000120: 9cbe 013f 4216 9bbf e8b1 c9bf ccac cabe
00000130: 0666 e9bc ec54 b33e aa1e cbbf 0a72 15bf
00000140: 3c54 f6ba 096c c8bf c261 61bf 9364 283f
00000150: f095 acbd 86d9 3e3f a458 1e40 50d4 563f
00000160: 979a 63bf 67ca 4abe 34da 3ec0 0442 a73c
00000170: bc8d 1a3e 00a1 c1be c42d 403f b578 a6bf
00000180: db85 dcbe 5391 9fbf 3e3e 53bf 8350 423e
00000190: a517 7c3f 92ce 3e3f d3fa 893f 6888 a23f
000001a0: b0de 0bbf 3af9 18be 2da1 b3bf 7657 b13f
000001b0: dea7 083f efc9 49bf d1e5 50bf a87a 1fbf
000001c0: f2bd 073f 1329 793f 1ecb b1bf 9ad2 66bf
000001d0: 7522 07c0 21a5 9c3f 5aab b5be 41fa 27bf
000001e0: e8b7 0bbf 13a1 803f 5cc6 103f 6dfd e9bf
000001f0: f9c8 3dbf 2a95 3dbf ff5a ff3e b98c 59be
00000200: 6cc1 fd3f 5294 b8bf 3682 eebf a881 b13c
00000210: 0368 46bc 202a 4c3f d40a 1e3d 0ed1 5f3f
00000220: 85b1 b53f 7497 bf3f 0e85 f63f 8c23 2ebf
00000230: 5895 e73f 84c4 a93d d691 1740 ac75 243d
00000240: 6259 423e 4fa1 81bf 98b1 96bf f738 d33e
00000250: d784 99bf c455 4a3e 2de6 84bf 06db 7c3e
00000260: c272 06bf b697 813d 3aae bb3f 90ef 8c3f
00000270: fc00 133f e0e2 193f 68a0 de3e 0e16 eebf
00000280: feef 23c0 8fea f93e 14d9 003e e5bc 37c0
00000290: a9c8 e33e c73e 1ebf b05d 2ebf 39ce 453f
000002a0: b0ae a83f 91c0 d53d defc c83e 606f 2abf
000002b0: f56d 5dbf bde7 e33e 2aa6 81bf 375a 60bf
000002c0: 499d 113f cda1 2fbd 49ae f43e a7f9 a2bf
000002d0: 9cf2 c4bd 18af f2bf 812f b8bf 5b79 933e
000002e0: 5c9a 953f befc 993f 41bb e43e 408a 8cbe
000002f0: 20e2 833f 433f f1be b0d6 c53a a987 d83d
00000300: 0c73 bd3f d79a a53f ec59 0f40 2d37 09bf
00000310: fba4 46bf 3e65 213f 2419 463f b50e 1c3e
00000320: 45a2 27bf 15cc 1f3f a766 973e 8086 cbbf
00000330: 08fa d4bf f4d1 0e3f 8e4f e3be 56db 0d3f
00000340: ef99 d8be c8ed 713f e4e5 adbf 8305 7fbe
00000350: f068 43bf 08a5 42be cc1c cb3e 9485 1abf
00000360: 9e32 debc e459 16bf 3251 54bd 0843 69bd
00000370: d834 1ebf 6854 05c0 9179 533f a7f1 8d3f
00000380: 9a5a 8cbf 7c97 ecbf e145 c6be 56f2 4a3f
00000390: ba83 d2bd f45e 62bf 42ca debe 178c b0be
000003a0: ad4d 9ebe 199f e0be 37e6 ba3f 9069 53be
000003b0: a889 c8be f252 963f 27ae 0f3f 0d08 d63f
000003c0: 80de 41be 0616 ed3d a541 41be 744d 61bf
000003d0: bb85 80bd 1d42 27bc e4c9 91bf 8dd0 fb3e
000003e0: c718 a03f 86bc 1e3d 439e 2f3e 55fb c03d
000003f0: 6727 003d db0f 5dbe 5887 953e 5bca 2c3c

lstm.weight_ih_l0 f4 [128, 64]
0.03686073 0.037688084 -0.044563882 -0.15019514 -0.1562284 0.18439278 -0.03633396 -0.091056846
-0.119542316 -0.0566499 0.011414497 -0.10405395 -0.13724723 -0.16671793 0.13375026 0.13163586
0.14456008 0.1444639 -0.041456617 -0.1871409 -0.14755054 0.01356235 0.16012682 0.10832353
-0.06358794 -0.09201095 0.009893232 0.13399969 0.1731623 -0.13485178 -0.025868924 -0.04269306
-0.15011393 -0.038481876 -0.1036832 0.13973723 0.1603271 0.10768352 0.013632654 -0.053449646
0.11869566 0.03441629 0.18757825 0.018395774 0.17065516 -0.005114708 -0.0059973653 0.093568556
0.05571126 -0.18104476 -0.045045197 -0.14349636 0.037057325 0.10195674 -0.1465731 -0.028567396
-0.11867036 -0.08394559 -0.090622924 -0.12883106 0.13620952 -0.032910824 -0.080504075 0.023018694
0.05569701 0.024652101 -0.06258931 0.08867755 -0.0061875572 0.04935573 0.023207646 -0.20841101
-0.028278144 0.1796322 -0.20527242 -0.018110244 -0.103540726 -0.081308946 0.02950234 0.06803849
0.185561 -0.0145781515 -0.059156615 -0.117571265 0.14634708 0.049809296 -0.0034336508 -0.0049897316
0.06386627 0.04266446 0.09811986 0.1232684 -0.039856456 -0.045630682 0.09536936 0.049088366
-0.0957182 0.095837705 0.16642074 0.067051984 -0.03592831 -0.15187135 0.107188545 -0.10518015
-0.15050967 0.05403802 0.016369669 0.0012878508 -0.042152196 0.110363804 -0.055165466 0.027065333
-0.003708291 -0.056198124 0.10866385 0.07111069 -0.12482087 -0.17977142 0.14731678 -0.217655
0.06633044 0.12882061 0.16361041 -0.16570814 0.18968216 0.17503548 0.18070786 -0.066739626
0.12567581 0.021374071 0.062427312 -0.12566456 -0.0031518291 0.025526367 0.14280044 0.05060829
-0.019163521 0.12929764 -0.053096496 0.02965455 -0.11299356 0.1425535 -0.026830556 -0.034970284
0.17283753 0.119771 0.1656973 -0.013623653 -0.17877172 -0.14120065 -0.08449212 0.07598155
0.12121234 -0.15111817 0.113441445 -0.1477248 0.010072281 -0.07080432 -0.08700569 -0.0704933
-0.05170786 -0.025008515 0.14335765 -0.06855741 -0.08265078 0.12419684 0.09449725 -0.08522309
-0.050380748 -0.025387514 -0.117314465 -0.008415099 0.031786766 0.12539776 -0.066848025 0.110922985
-0.026060048 0.08944942 -0.19947074 0.14369853 -0.1317475 0.110943526 0.18258843 -0.12588486
0.16507162 -0.021933116 -0.0565631 -0.12722932 0.08909727 0.13410203 0.058415353 0.0917178
-0.1314702 -0.11664385 -0.059347715 0.017499723 0.048321247 0.03586091 0.12700355 -0.1419578
0.19346705 -0.002503109 -0.05795779 0.018131107 0.12640245 -0.23122445 0.0712374 -0.07738174
0.042505212 0.04271959 0.032185987 0.06301987 -0.06710516 0.008334839 -0.053977948 -0.14881256
-0.13959554 -0.13876928 0.061722726 0.17410904 -0.14474376 -0.00620719 0.08014703 -0.05913514
-0.11062608 -0.0843229 -0.18629734 -0.028713485 -0.117106274 0.038946692 0.042111766 0.012574916
0.05608336 -0.068050876 0.16213815 0.096295215 0.08436205 -0.1562216 -0.0014601969 -0.015112841
-0.017433675 0.1323257 0.020149497 -0.0027593991 0.13199519 -0.14421502 -0.12698144 0.11771437
0.07488662 -0.019362947 -0.07804593 0.04726553 -0.0472001 -0.01111377 0.12505 0.09058221
00000000: 47fb 163d d25e 1a3d 9e88 36bd c1cc 19be
00000010: 56fa 1fbe 76d1 3c3e ebd2 14bd 037c babd
00000020: 9ad2 f4bd ba09 68bd df03 3b3c 3d1a d5bd
00000030: 8a8a 0cbe 1bb8 2abe d4f5 083e 8dcb 063e
00000040: 8f07 143e 58ee 133e 6ace 29bd dda1 3fbe
00000050: 7d17 17be 9e34 5e3c 49f8 233e bad8 dd3d
00000060: 653a 82bd 3d70 bcbd 3917 223c 3737 093e
00000070: 7551 313e 9616 0abe 11eb d3bc ebde 2ebd
00000080: 77b7 19be 2c9f 1dbd dc57 d4bd 4717 0f3e
00000090: ca2c 243e 2d89 dc3d 7f5b 5f3c 04ee 5abd
000000a0: b616 f33d 18f8 0c3d 8314 403e bcb2 963c
000000b0: 3ac0 2e3e 4899 a7bb 8c85 c4bb dfa0 bf3d
000000c0: 7d31 643d cc63 39be 5081 38bd b6f0 12be
000000d0: 6cc9 173d b2ce d03d 4217 16be 2c06 eabc
000000e0: 7209 f3bd aaeb abbd 8398 b9bd 4aec 03be
000000f0: 827a 0b3e 80cd 06bd 52df a4bd b391 bc3c
00000100: 8c22 643d 34f3 c93c d32e 80bd 939c b53d
00000110: fec0 cabb 3c29 4a3d f61d be3c b269 55be
00000120: 91a7 e7bc 81f1 373e ef32 52be ef5b 94bc
00000130: 290d d4bd 4e85 a6bd e4ae f13c c457 8b3d
00000140: b403 3e3e 33d9 6ebc 354e 72bd 34c9 f0bd
00000150: 02dc 153e d504 4c3d 1a07 61bb e780 a3bb
00000160: 52cc 823d eec0 2e3d 11f3 c83d 2574 fc3d
00000170: 8640 23bd 3de7 3abd 0351 c33d e210 493d
00000180: e707 c4bd 8f46 c43d 336a 2a3e 8d52 893d
00000190: 9029 13bd 2a84 1bbe ab85 db3d b168 d7bd
000001a0: 351f 1abe f956 5d3d af19 863c 1acd a83a
000001b0: c8a7 2cbd 6b06 e23d 2ff5 61bd 1eb8 dd3c
000001c0: cd06 73bb 0130 66bd 278b de3d 7ba2 913d
000001d0: 16a2 ffbd 0016 38be 36da 163e f4e0 5ebe
000001e0: 41d8 873d 8de9 033e 7d89 273e 65af 29be
000001f0: 0a3c 423e 803c 333e 7b0b 393e c9ae 88bd
00000200: 29b1 003e ad18 af3c c8b3 7f3d 36ae 00be
00000210: eb8e 4ebb ac1c d13c 473a 123e a34a 4f3d
00000220: d1fc 9cbc 9a66 043e b67b 59bd 19ee f23c
00000230: 2b69 e7bd 8bf9 113e c1cb dbbc 003d 0fbd
00000240: 52fc 303e 804a f53d 8eac 293e be35 5fbc
00000250: ef0f 37be e796 10be 340a adbd 379c 9b3d
00000260: 2d3e f83d b9be 1abe fd53 e83d 2c45 17be
00000270: 3506 253c db01 91bd 0a30 b2bd cb5e 90bd
00000280: 9fcb 53bd a8de ccbc 59cc 123e d467 8cbd
00000290: d044 a9bd ea5a fe3d c687 c13d 7289 aebd
000002a0: 0b5c 4ebd 7af9 cfbc 9142 f0bd 7cdf 09bc
000002b0: d732 023d 4568 003e 9ee7 88bd 972b e33d
000002c0: e27b d5bc 4231 b73d 0f42 4cbe b525 133e
000002d0: d1e8 06be 5c36 e33d 76f8 3a3e f6e7 00be
000002e0: 8908 293e 14ad b3bc b6ae 67bd 6748 02be
000002f0: a178 b63d 0b52 093e f044 6f3d 8bd6 bb3d
00000300: 20a0 06be f9e2 eebd 9716 73bd 945b 8f3c
00000310: 80ec 453d e4e2 123d 380d 023e 635d 11be
00000320: 3a1c 463e 330b 24bb 2665 6dbd b087 943c
00000330: a56f 013e 1ac6 6cbe eae4 913d 517a 9ebd
00000340: f219 2e3d bdfa 2e3d 74d5 033d 9010 813d
00000350: 6e6e 89bd d98e 083c fb17 5dbd 5262 18be
00000360: 22f2 0ebe 8919 0ebe f8d0 7c3d a449 323e
00000370: b537 14be af65 cbbb 2024 a43d b037 72bd
00000380: ed8f e2bd 7cb1 acbd bbc4 3ebe 8b38 ebbc
00000390: 6ad5 efbd 9186 1f3d 637d 2c3d 0507 4e3c
000003a0: aab7 653d 425e 8bbd 8b07 263e 6d36 c53d
000003b0: 03c6 ac3d 8ef8 1fbe 1464 bfba d99b 77bc
000003c0: 11d1 8ebc 6380 073e 8f10 a53c 09d7 34bb
000003d0: bf29 073e 1aad 13be 6c07 02be 3b14 f13d
000003e0: 285e 993d 0b9f 9ebc 8bd6 9fbd 8099 413d
000003f0: e454 41bd 8816 36bc 1b0d 003e 2a83 b93d

lstm.weight_hh_l0 f4 [128, 32]
0.10959485 -0.010619919 -0.077989094 -0.069401816 0.06692013 -0.05079059 -0.17171426 0.113397524
0.110305354 0.1056265 -0.17651603 0.027189428 -0.20252372 0.103260204 -0.091067255 -0.039192405
-0.101969324 0.08896513 0.013279238 0.008464224 -0.07545567 -0.13909207 0.12467118 0.002831327
-0.17964248 -0.16313748 0.16003503 0.037498858 0.12589523 0.16737247 -0.0447036 -0.14566468
-0.1431852 -0.039122447 0.20042942 0.060967043 -0.17249888 0.07298899 0.110912584 0.09523818
-0.1514812 0.20118228 -0.21390232 0.043699704 0.079304256 0.049343213 -0.0022256228 -0.06597529
-0.030975344 0.060066428 0.07452024 0.09222004 -0.0026374713 -0.096725725 0.019384516 -0.027191151
-0.08827718 0.028717186 -0.13252656 -0.16062674 0.10805987 0.08021505 -0.10948041 0.05150553
-0.035116676 -0.13065718 0.03658243 0.15794267 -0.14705046 -0.06393944 -0.028569676 0.15440507
-0.13172987 0.15943979 -0.09716241 -0.039626062 0.028806902 0.1063274 0.122980475 -0.0324362
-0.13852121 -0.026124537 -0.06609998 -0.012725311 -0.028604817 -0.03590228 -0.1453616 0.14463952
-0.12069722 0.041503295 -0.04200957 -0.04657006 -0.12829612 0.121943794 -0.10645343 -0.22744909
-0.19223876 -0.08543182 0.011680499 0.121573776 -0.23022863 0.1570619 0.105792925 0.10205222
0.05749767 -0.032465875 -0.10011995 0.059759352 0.04367808 -0.04028554 -0.18026233 0.007871087
-0.10311755 -0.20910056 0.15299422 0.014163728 -0.08875159 0.13408852 0.1132755 0.0034265767
-0.09652614 -0.024822507 -0.15885907 -0.07403526 -0.0946272 0.11305243 -0.07139234 0.1422366
0.048417747 0.1157173 -0.08121158 -0.073432066 -0.2272137 0.024446294 0.05722039 0.09801954
-0.08714442 -0.10939369 -0.038718056 0.05863368 -0.00717987 -0.16109614 0.072559424 -0.1088968
-0.14459398 0.019305194 0.11847997 0.15372826 -0.15424466 0.011585715 0.12804253 -0.07146778
-0.104697414 -0.12817092 -0.037128173 0.021614585 -0.15774116 -0.08994536 0.109917715 -0.0011492476
0.021062307 -0.069421194 0.08634243 -0.035075694 -0.038809612 0.15925103 -0.11815683 -0.07800115
0.03931516 0.08528307 -0.042312913 0.07110441 -0.115965754 0.15020572 0.1414718 0.155335
-0.16717824 -0.02581165 -0.021316342 0.06246357 -0.0656569 0.16030777 -0.2004176 0.09282497
0.10727783 -0.13658743 0.040791728 0.14486095 0.036130197 -0.12802151 -0.15210113 0.12917511
-0.10598189 -0.1312351 -0.008411149 -0.10594279 0.15124457 0.12022532 0.11609102 -0.0348102
-0.033926774 0.16331415 0.107811235 -0.09981204 -0.101009734 -0.029167918 0.10061219 0.0133071635
0.07861306 0.13524708 -0.058790047 0.0015384785 0.048778117 -0.16132267 0.06938376 0.013392377
-0.11520852 -0.031883918 0.109384 0.041113216 0.07084717 -0.14523737 0.097294345 -0.049738478
0.18751933 -0.19651546 -0.0944159 0.08628871 -0.17192033 -0.12943089 -0.06909255 0.087513834
-0.07620145 0.082617454 0.007931413 0.12504111 0.13995548 0.1501175 0.18270275 -0.098494545
-0.073147275 -0.036256388 0.034964066 0.008624348 0.14908071 -0.036183085 -0.16521546 -0.075890996
-0.05401636 -0.08272949 0.15560721 0.010968062 -0.02964406 0.056017466 -0.15145779 0.08905964
00000000: 4473 e03d 2bff 2dbc bfb8 9fbd 8a22 8ebd
00000010: 6c0d 893d cb09 50bd ddd5 2fbe f63c e83d
00000020: c6e7 e13d b552 d83d 9ec0 34be 5dbc de3c
00000030: 6162 4fbe 167a d33d 7881 babd 3788 20bd
00000040: 4bd5 d0bd 5a33 b63d 2991 593c 87ad 0a3c
00000050: 8188 9abd 276e 0ebe 9b53 ff3d c98d 393b
00000060: 33f4 37be 830d 27be 39e0 233e 6798 193d
00000070: aeea 003e b063 2b3e 1f1b 37bd 1f29 15be
00000080: 249f 12be dc3e 20bd 5f3d 4d3e 94b8 793d
00000090: 8ca3 30be 407b 953d 2326 e33d 3c0c c33d
000000a0: e31d 1bbe ba02 4e3e 3609 5bbe 76fe 323d
000000b0: 456a a23d 1c1c 4a3d c1db 11bb 0e1e 87bd
000000c0: 01c0 fdbc 3708 763d 119e 983d dcdd bc3d
000000d0: 6dd9 2cbb 2318 c6bd 47cc 9e3c fabf debc
000000e0: abca b4bd 4e40 eb3c 0bb5 07be 567b 24be
000000f0: 7e4e dd3d ca47 a43d 4437 e0bd 76f7 523d
00000100: 81d6 0fbd ffca 05be 75d7 153d b9bb 213e
00000110: 6594 16be aef2 82bd f40a eabc 5d1c 1e3e
00000120: 32e4 06be 2f44 233e 16fd c6bd f04e 22bd
00000130: 74fc eb3c 2ec2 d93d 30dd fb3d d2db 04bd
00000140: 81d8 0dbe 2003 d6bc 6d5f 87bd d37d 50bc
00000150: a654 eabc 450e 13bd acd9 14be 621c 143e
00000160: 1b30 f7bd 5cff 293d 3a12 2cbd 3fc0 3ebd
00000170: 0f60 03be abbd f93d 4204 dabd 6ae8 68be
00000180: 3dda 44be e1f6 aebd 905f 3f3c acfb f83d
00000190: 0ec1 6bbe d6d4 203e f6a9 d83d c100 d13d
000001a0: ad82 6b3d f0fa 04bd b00b cdbd 39c6 743d
000001b0: c9e7 323d 7302 25bd b096 38be bbf5 003c
000001c0: 4b2f d3bd 751e 56be 84aa 1c3e fb0e 683c
000001d0: 65c3 b5bd 804e 093e fcfc e73d 6b90 603b
000001e0: 7faf c5bd 9258 cbbc f4ab 22be cc9f 97bd
000001f0: e8cb c1bd 0888 e73d 2636 92bd 79a6 113e
00000200: b051 463d 31fd ec3d 4252 a6bd 8d63 96bd
00000210: b5aa 68be 9843 c83c ed5f 6a3d 78be c83d
00000220: c678 b2bd cd09 e0bd d396 1ebd df29 703d
00000230: 1d45 ebbb 63f6 24be 099a 943d 4905 dfbd
00000240: 7210 14be ed25 9e3c a0a5 f23d f16a 1d3e
00000250: 50f2 1dbe 03d2 3d3c 951d 033e b35d 92bd
00000260: 996b d6bd 3d3f 03be b613 18bd 1211 b13c
00000270: e686 21be 4635 b8bd 8a1c e13d 5aa2 96ba
00000280: dc8a ac3c b32c 8ebd 4dd4 b03d 88ab 0fbd
00000290: d4f6 1ebd b412 233e 35fc f1bd 11bf 9fbd
000002a0: ef08 213d e4a8 ae3d 4e50 2dbd 309f 913d
000002b0: 747f edbd 87cf 193e fcdd 103e 2310 1f3e
000002c0: c630 2bbe f472 d3bc 9c9f aebc cdd9 7f3d
000002d0: 2077 86bd b827 243e 453a 4dbe 051b be3d
000002e0: 7bb4 db3d 93dd 0bbe 3a15 273d 6e56 143e
000002f0: 42fd 133d 1218 03be 66c0 1bbe 7b46 043e
00000300: 080d d9bd 7e62 06be eace 09bc 89f8 d8bd
00000310: dbdf 1a3e b138 f63d 21c1 ed3d 2495 0ebd
00000320: cdf6 0abd d33b 273e 23cc dc3d 416a ccbd
00000330: 31de cebd 8ff1 eebc c40d ce3d 4a06 5a3c
00000340: e2ff a03d 367e 0a3e d5cd 70bd c6a6 c93a
00000350: 90cb 473d c531 25be 1319 8e3d b36b 5b3c
00000360: 72f2 ebbd b698 02bd b804 e03d 5566 283d
00000370: 5218 913d 1bb9 14be 4242 c73d 93ba 4bbd
00000380: 1105 403e 593b 49be 205d c1bd 23b8 b03d
00000390: e20b 30be 8889 04be 6580 8dbd 743a b33d
000003a0: 810f 9cbd 5733 a93d c2f2 013c c70a 003e
000003b0: 7d50 0f3e 67b8 193e 6e16 3b3e 82b7 c9bd
000003c0: 3dce 95bd 9481 14bd 7b36 0f3d 234d 0d3c
000003d0: 9da8 183e b734 14bd 3e2e 29be bd6c 9bbd
000003e0: 4240 5dbd 146e a9bd 7f57 1f3e 63b3 333c
000003f0: 1ad8 f2bc 9272 653d c017 1bbe e764 b63d

lstm.bias_ih_l0 f4 [128]
0.03994425 0.19409002 0.063480034 0.11105912 0.1830991 0.019087808 -0.1473248 0.04429378
-0.0872009 -0.03975469 -0.035058636 0.08502606 0.20453514 -0.052560687 0.098305024 -0.09799408
-0.018685458 -0.06282401 -0.07820113 -0.098199174 -0.02398964 -0.09460155 -0.064422786 -0.10062168
0.17749535 0.0016998093 0.14709888 -0.024696618 0.13265742 0.13796167 0.071896866 -0.06799387
-0.0009711537 -0.07986262 -0.09920425 -0.20527641 0.06070911 0.022228487 -0.1058072 -0.14106509
-0.075041935 0.10112044 0.20511614 0.14254104 -0.043973528 0.06342736 -0.116142385 0.08988413
0.09675987 -0.0064014527 -0.034438152 -0.06096274 -0.043629978 -0.16652122 -0.1369721 0.2170658
-0.12611227 0.009813456 -0.013340791 0.09045529 0.21821474 0.14167109 -0.031647693 -0.08239753
-0.12796286 -0.1621665 0.22502106 0.18171051 -0.09479371 0.11461028 -0.10162678 0.06473887
0.022452783 0.16276486 -0.20089704 -0.22406128 -0.07867711 -0.18018252 -0.18419038 -0.13507548
0.028424613 -0.19927311 -0.11769742 0.16627972 0.10766162 0.11002642 0.0641888 0.13985781
-0.21021223 -0.17764238 -0.01650661 -0.1420952 -0.19803451 0.1408788 0.056567565 0.06756175
0.029054128 0.084306374 0.15036857 -0.0716609 0.06634064 0.061779935 0.0820427 0.19175014
0.14324103 0.1415846 0.19306996 0.12012877 -0.014418434 -0.09418002 0.1536565 0.15642877
0.15109546 0.14637774 -0.02226159 0.023011457 0.034174066 0.10905087 0.03805369 -0.092916094
-0.021532953 0.22467373 0.017223414 -0.11307425 -0.04896975 0.072885126 -0.10710283 0.08253624
00000000: 959c 233d 89bf 463e d201 823d f772 e33d
00000010: 557e 3b3e 095e 9c3c 50dc 16be 656d 353d
00000020: 6396 b2bd d0d5 22bd a599 0fbd 2522 ae3d
00000030: a971 513e e049 57bd 2554 c93d 1fb1 c8bd
00000040: 3f12 99bc e0a9 80bd ea27 a0bd a61c c9bd
00000050: ec85 c4bc 75be c1bd 18f0 83bd bd12 cebd
00000060: 57c1 353e 23cc de3a 17a1 163e 9050 cabc
00000070: 59d7 073e d345 0d3e aa3e 933d 5f40 8bbd
00000080: 0695 7eba 038f a3bd 992b cbbd fb33 52be
00000090: 1eaa 783d 8418 b63c 72b1 d8bd 5e73 10be
000000a0: 96af 99bd 3c18 cf3d f709 523e 47f6 113e
000000b0: 961d 34bd 34e6 813d 0fdc edbd 2c15 b83d
000000c0: 0a2a c63d 47c3 d1bb 050f 0dbd 11b4 79bd
000000d0: 59b5 32bd 8a84 2abe 6a42 0cbe 7f46 5e3e
000000e0: 9323 01be 9ec8 203c 5593 5abc a040 b93d
000000f0: af73 5f3e 3a12 113e 03a1 01bd 09c0 a8bd
00000100: b208 03be fa0e 26be ec6b 663e 5212 3a3e
00000110: 3423 c2bd cbb8 ea3d b421 d0bd d095 843d
00000120: e6ee b73c d5ab 263e f4b7 4dbe 5270 65be
00000130: 7721 a1bd c481 38be 679c 3cbe 3a51 0abe
00000140: bcda e83c 400e 4cbe 580b f1bd 3b45 2a3e
00000150: b27d dc3d 8855 e13d 6b75 833d e336 0f3e
00000160: e041 57be e2e7 35be df38 87bc 6781 11be
00000170: 8fc9 4abe 8842 103e 64b3 673d d15d 8a3d
00000180: ec02 ee3c d2a8 ac3d 38fa 193e f3c2 92bd
00000190: 9add 873d f50c 7d3d 0106 a83d 265a 443e
000001a0: c7ad 123e 8efb 103e 22b4 453e 1306 f63d
000001b0: 4c3b 6cbc 74e1 c0bd 2158 1d3e dd2e 203e
000001c0: c5b8 1a3e 0ce4 153e f05d b6bc 8682 bc3c
000001d0: 1bfa 0b3d 1056 df3d 30de 1b3d cb4a bebd
000001e0: e065 b0bc df10 663e 1e18 8d3c 7993 e7bd
000001f0: 8194 48bd cc44 953d bb58 dbbd c308 a93d

lstm.bias_hh_l0 f4 [128]
-0.13264136 0.020278974 0.16758487 0.11151349 0.036559373 0.22203173 -0.12646732 -0.13787986
0.103707224 0.035184015 0.17091876 0.11507902 0.045353826 0.1818695 0.17063788 -0.116928004
0.031727366 0.0670328 -0.103809915 -0.11042134 0.21494748 -0.087528884 -0.031690113 0.08430466
0.045629304 0.15344952 -0.03374495 0.104120836 0.14056665 0.1463319 -0.11674341 -0.027013067
0.08108558 0.03641348 -0.047149956 0.0025811226 0.1715482 0.1496303 -0.09129128 -0.119423
0.0003863186 0.07972455 0.09402437 0.033791784 0.024337264 0.12930684 0.12818682 -0.06255541
0.08214909 0.112538315 0.09435572 -0.034681357 0.047547095 0.16339119 0.16767259 -0.061073262
-0.008781421 -0.0051114643 -0.015896367 -0.017873213 0.19014533 0.023208369 -0.14938892 0.09687095
-0.061782375 0.063455395 0.22833493 0.05637992 -0.23104489 0.23854837 0.0015041904 -0.16327763
-0.0705648 0.1543488 -0.071437284 -0.09391559 -0.06030727 -0.09568167 -0.16207384 0.0067308093
-0.18165652 0.037515465 0.040403962 0.030263275 -0.120119706 0.18257238 -0.18903887 0.1570256
0.11863305 -0.13612455 0.20370188 -0.0024577538 -0.064162664 0.06348186 0.055040855 -0.110705875
-0.11633438 -0.09988803 0.027426584 0.057404414 -0.07191699 0.19651829 0.03484282 -0.11722074
0.21665382 0.044649888 0.033945415 -0.08381548 0.10989495 0.01747709 0.090501845 -0.001828341
0.13441275 0.057076234 0.06655825 -0.033065643 0.17246293 0.052647684 0.12434613 -0.12378259
0.023831666 -0.094985485 0.017361265 -0.10045489 0.08251834 0.06825172 -0.05047941 -0.103351474
00000000: 23d3 07be 1720 a63c 5e9b 2b3e 2f61 e43d
00000010: 48bf 153d 495c 633e a680 01be 6130 0dbe
00000020: 7464 d43d 1d1d 103d 5405 2f3e 8dae eb3d
00000030: efc4 393d 003c 3a3e b2bb 2e3e f377 efbd
00000040: 8ef4 013d 7e48 893d 4b9a d4bd 9524 e2bd
00000050: 311b 5c3e 5842 b3bd 7ecd 01bd eca7 ac3d
00000060: cbe5 3a3d df21 1d3e 2538 0abd 4e3d d53d
00000070: b4f0 0f3e 08d8 153e 2b17 efbd 824a ddbc
00000080: 3210 a63d 4d26 153d 5020 41bd 0d28 293b
00000090: 55aa 2f3e af38 193e ecf6 babd 0c94 f4bd
000000a0: ce8a ca39 a046 a33d d98f c03d 4169 0a3d
000000b0: f15e c73c 0369 043e 6843 033e 0d1d 80bd
000000c0: c83d a83d 7d7a e63d 923d c13d 0a0e 0ebd
000000d0: bec0 423d 0550 273e 5db2 2b3e f527 7abd
000000e0: f3df 0fbc 127e a7bb 1939 82bc d86a 92bc
000000f0: 75b5 423e 7a1f be3c 69f9 18be 4764 c63d
00000100: 840f 7dbd e7f4 813d a2d0 693e a2ee 663d
00000110: 0897 6cbe 0646 743e 4128 c53a 4032 27be
00000120: 4784 90bd 9d0d 1e3e b64d 92bd d156 c0bd
00000130: c204 77bd c0f4 c3bd aff6 25be 1f8e dc3b
00000140: 2b04 3abe d1a9 193d a07e 253d b0ea f73c
00000150: 5201 f6bd 41f4 3a3e 6893 41be 52cb 203e
00000160: e2f5 f23d 3c64 0bbe 3a97 503e 4412 21bb
00000170: b767 83bd c702 823d 8572 613d c3b9 e2bd
00000180: b840 eebd 1892 ccbd b7ad e03c e420 6b3d
00000190: 3749 93bd 173c 493e 58b7 0e3d 6d11 f0bd
000001a0: 80da 5d3e cde2 363d 590a 0b3d 73a7 abbd
000001b0: 9b10 e13d 1d2c 8f3c 0859 b93d f2a4 efba
000001c0: 7fa3 093e c5c8 693d b14f 883d d76f 07bd
000001d0: 1f9a 303e 19a5 573d 2fa9 fe3d ba81 fdbd
000001e0: a03a c33c c087 c2bd 3639 8e3c 4bbb cdbd
000001f0: 60ff a83d 8fc7 8b3d 7fc3 4ebd f0a9 d3bd

lstm.weight_ih_l0_reverse f4 [128, 64]
-0.130561 0.0065581845 -0.09171485 0.07673178 0.18683308 0.059716392 0.013947748 -0.07866793
0.022188941 0.060379073 0.10224453 -0.06117829 -0.11549807 -0.07223587 -0.052064765 0.18484563
-0.14454034 0.111651205 -0.068925194 0.13092697 -0.029897438 -0.1791421 0.03610279 -0.13531055
-0.11980321 0.12820344 0.03963635 0.14251408 -0.13347694 0.22916865 -0.17949617 -0.07457164
0.12813257 0.11550174 -0.013809397 0.122283 -0.020962035 0.08373601 0.14328809 0.030387105
0.1340959 0.11856992 0.100478195 0.06842096 -0.042248737 -0.007110916 -0.0039297375 0.19172823
-0.0985566 -0.057719592 0.108475685 -0.077201 0.07394715 -0.0618869 -0.14013448 0.06899617
0.18854852 -0.03272417 -0.07284181 -0.12234162 -0.074443266 0.14907931 -0.107750125 0.117629156
-0.07320488 -0.11809294 -0.08547061 -0.052264024 0.17708719 0.05843203 -0.09517439 0.1156709
-0.05556679 -0.0036669075 -0.19124947 0.105126224 -0.045652334 -0.20897028 0.07048353 -0.16312885
0.15967174 -0.17021249 -0.009460437 0.04437214 -0.044182483 0.22588255 -0.15945897 0.03856797
-0.098363206 0.019139562 -0.033501673 -0.042063575 0.16967586 0.13883454 0.107589036 0.0261292
0.13176787 0.09533307 0.18235275 0.13718474 -0.12119837 -0.10557194 -0.05363592 0.03813675
0.0980523 -0.112692304 0.11497921 0.12098239 0.18256782 -0.10014024 0.1170833 0.03497275
-0.2014114 -0.034497477 -0.08830794 0.09619225 -0.16078456 -0.15846886 0.079661176 -0.0009151182
-0.044572886 -0.061263364 -0.07768889 0.06728608 0.121720985 -0.008618305 0.14541341 -0.13792598
0.009621067 0.13163207 0.036800385 0.14142805 0.01286792 0.2035182 0.081317835 0.18946421
-0.17178959 0.13627046 0.07708712 0.0860925 -0.14716615 -0.06603639 0.111158 -0.040574662
0.033185028 -0.12699664 -0.038818832 0.050706614 0.06729571 -0.06931833 0.19202438 0.15303425
-0.068082005 0.13175297 -0.088735536 -0.05184955 0.14085545 -0.050743718 -0.056650974 -0.111204825
-0.17261745 0.09650025 -0.20799834 -0.09835208 0.14960313 0.15029953 0.034333076 -0.122608274
0.054421656 0.08234305 0.18308203 -0.11689001 0.10825259 -0.08571409 -0.07016944 0.19491664
-0.03008938 0.099221796 0.012578294 0.12322662 -0.094824076 -0.14182499 -0.22358039 0.116914384
0.16072491 0.14012869 0.019525526 -0.028877687 -0.07843013 0.007103199 0.14553644 0.05998991
0.073534355 -0.13152817 0.08613546 -0.18183364 0.024793003 0.013155859 -0.06872487 0.012625928
-0.03507574 0.1615494 -0.16498 0.057758104 -0.017185668 -0.0350507 0.117756665 0.08330165
0.10257085 -0.035683125 -0.11253789 -0.044733435 -0.046059467 0.18677875 -0.092866756 -0.1331305
-0.15463234 -0.106278434 0.06818231 -0.1516467 -0.040151495 -0.026214903 -0.13598822 -0.16624737
0.11135354 0.021107167 -0.15901168 -0.16248173 -0.16342722 -0.080254905 -0.13967703 0.0065807747
0.031774174 -0.1288053 0.12979765 -0.0003509649 0.099818125 -0.09141128 -0.013675694 0.17557968
-0.025309555 0.16361248 -0.12427491 -0.109662935 -0.17120044 0.1227397 -0.033231925 -0.021695575
-0.12332179 0.1151293 -0.04355296 -0.15792005 -0.1428949 -0.050887384 0.0037469098 -0.13272709
00000000: c8b1 05be 0ae6 d63b ffd4 bbbd 8d25 9d3d
00000010: 2c51 3f3e 2d99 743d 1885 643c a71c a1bd
00000020: 95c5 b53c 0c50 773d 9565 d13d 1696 7abd
00000030: 418a ecbd 66f0 93bd dd41 55bd 2c48 3d3e
00000040: 6202 14be 63a9 e43d a728 8dbd b811 063e
00000050: 79eb f4bc 0771 37be 85e0 133d d98e 0abe
00000060: 635b f5bd c347 033e ba59 223d 36ef 113e
00000070: 2eae 08be 30ab 6a3e d8cd 37be 04b9 98bd
00000080: 2f35 033e 2d8c ec3d cf40 62bc 826f fa3d
00000090: 93b8 abbc c97d ab3d 1dba 123e 61ee f83c
000000a0: 7050 093e c9d4 f23d 83c7 cd3d 4a20 8c3d
000000b0: 030d 2dbd b002 e9bb 07c5 80bb 6854 443e
000000c0: 0bd8 c9bd 616b 6cbd 8028 de3d 8f1b 9ebd
000000d0: 9a71 973d 1e7d 7dbd 6a7f 0fbe dd4d 8d3d
000000e0: dd12 413e c709 06bd 162e 95bd 3e8e fabd
000000f0: b675 98bd 3fa8 183e 19ac dcbd 8ee7 f03d
00000100: 71ec 95bd b6da f1bd 370b afbd cd12 56bd
00000110: 5856 353e 6d56 6f3d caea c2bd dde4 ec3d
00000120: 019a 63bd 8050 70bb e7d6 43be 6b4c d73d
00000130: f1fd 3abd 4efc 55be ab59 903d 400b 27be
00000140: fd80 233e 2f4c 2ebe f3ff 1abc 90bf 353d
00000150: b1f8 34bd c14d 673e 3649 23be 73f9 1d3d
00000160: a672 c9bd 92ca 9c3c 0d39 09bd db4a 2cbd
00000170: 82bf 2d3e a42a 0e3e a457 dc3d e70c d63c
00000180: 28ee 063e fc3d c33d aeba 3a3e 287a 0c3e
00000190: da36 f8bd 1a36 d8bd 57b1 5bbd 4835 1c3d
000001a0: a5cf c83d 39cb e6bd 387a eb3d 9ec5 f73d
000001b0: 0ff3 3a3e 5316 cdbd 5fc9 ef3d 963f 0f3d
000001c0: ca3e 4ebe 3a4d 0dbd cbda b4bd 7100 c53d
000001d0: b5a4 24be a945 22be 6625 a33d 8be4 6fba
000001e0: 0f92 36bd 4bef 7abd 5a1b 9fbd 49cd 893d
000001f0: da48 f93d cb33 0dbc 41e7 143e 783c 0dbe
00000200: aea1 1d3c 8fca 063e 00bc 163d 84d2 103e
00000210: f8d3 523c 1367 503e f789 a63d e802 423e
00000220: 9ce9 2fbe 7c8a 0b3e dadf 9d3d 4451 b03d
00000230: b9b2 16be 163e 87bd cea6 e33d 9e31 26bd
00000240: 06ed 073d 680b 02be 7f00 1fbd bdb1 4f3d
00000250: 55d2 893d c5f6 8dbd 0aa2 443e 03b5 1c3e
00000260: 946e 8bbd 40ea 063e faba b5bd 3260 54bd
00000270: 693c 103e a5d8 4fbd da0a 68bd 5bbf e3bd
00000280: a1c2 30be eca1 c53d 84fd 54be d16c c9bd
00000290: 9031 193e 1fe8 193e d7a0 0c3d 0c1a fbbd
000002a0: 3ee9 5e3d 79a3 a83d db79 3b3e 0864 efbd
000002b0: 89b3 dd3d de8a afbd ffb4 8fbd 3a98 473e
000002c0: 017e f6bc cc34 cb3d 3015 4e3c 3d5e fc3d
000002d0: 2033 c2bd 923a 11be 42f2 64be cf70 ef3d
000002e0: 1295 243e e57d 0f3e fff3 9f3c e690 ecbc
000002f0: fa9f a0bd f4c1 e83b 8107 153e fbb7 753d
00000300: 2e99 963d 52af 06be ca67 b03d 9932 3abe
00000310: b21a cb3c ac8b 573c a0bf 8cbd fbdc 4e3c
00000320: 94ab 0fbd 356d 253e 84f0 28be c393 6c3d
00000330: f5c8 8cbc 5391 0fbd 682a f13d 0e9a aa3d
00000340: aa10 d23d 7828 12bd 447a e6bd 683a 37bd
00000350: daa8 3cbd ee42 3f3e ed30 bebd 5d53 08be
00000360: f157 1ebe 82a8 d9bd 2ba3 8b3d 4649 1bbe
00000370: e575 24bd a3c0 d6bc 7f40 0bbe c03c 2abe
00000380: 530d e43d f0e8 ac3c f5d3 22be 9c61 26be
00000390: 7759 27be af5c a4bd 7f07 0fbe 8aa3 d73b
000003a0: a325 023d 89e5 03be ade9 043e b601 b8b9
000003b0: 726d cc3d d635 bbbd 0510 60bc 29cb 333e
000003c0: fc55 cfbc 088a 273e d883 febd f696 e0bd
000003d0: 2b4f 2fbe f45e fb3d 331e 08bd ebba b1bc
000003e0: 2290 fcbd e9c8 eb3d 9764 32bd cbb5 21be
000003f0: 0a53 12be 4a6f 50bd b78e 753b 9ce9 07be

lstm.weight_hh_l0_reverse f4 [128, 32]
-0.116940565 0.02545219 -0.027091522 -0.08297341 0.044618957 -0.08741653 0.04517323 -0.13596582
0.17017111 -0.121910594 0.15544882 -0.16523589 -0.0010826618 -0.11585809 -0.06597266 -0.08794591
-0.12826762 -0.12570107 -0.16418391 0.09915209 0.008846874 0.013636962 0.20161787 0.08299389
-0.08293279 0.044890072 0.030751774 0.071906805 -0.13287725 0.15536506 -0.118635364 0.1679268
-0.032752756 0.011452194 0.13851695 -0.067743436 0.12849562 -0.17657651 -0.033531845 -0.15185143
-0.06011477 -0.07079009 0.079743676 -0.17141753 0.119808175 -0.009568722 -0.11048006 0.1710928
-0.021074649 0.053692684 -0.20121005 -0.1284107 -0.06234123 0.09353795 -0.17953047 0.02278491
0.14897238 0.0062697246 -0.0009726956 -0.12067057 -0.11164528 -0.12075585 -0.026984606 -0.092050806
0.018855127 0.07473268 0.103396595 -0.0508912 0.16528584 -0.06866569 -0.06397863 -0.12347199
0.12241453 0.17263365 0.009882611 0.073504575 0.0965974 -0.008882656 -0.122246586 0.13777919
-0.015474712 -0.11315029 0.08468046 0.172123 -0.15104608 0.06279294 0.00027324748 0.10941954
0.070505224 -0.05466181 0.18050899 -0.117082216 0.12842286 0.06655225 0.04782834 -0.11696347
0.11441265 0.13892134 -0.026622329 -0.07057833 0.0040724385 -0.07814387 0.016637277 -0.02283345
0.15874593 0.105668694 -0.21242848 0.041911066 0.07227803 -0.019041266 -0.03681114 -0.039827745
0.14713725 -0.13201365 -0.039293077 -0.08084838 -0.2235411 -0.010574623 -0.076109305 -0.12679824
-0.077842355 -0.0046285754 0.13678584 0.055643447 0.18966979 0.1982805 -0.11780098 -0.12621076
0.22566189 0.029292567 -0.23283738 -0.23168595 -0.12837853 -0.09097987 -0.16002135 0.20337911
0.17196465 -0.07329884 -0.062677145 -0.06266329 0.13390277 -0.16115977 0.019525258 0.15689118
0.02435194 -0.035743542 -0.15933779 -0.035416123 -0.11408806 0.10548683 -0.05667642 0.03413538
-0.00033982113 -0.076304756 0.17284197 -0.01864706 -0.1453341 -0.021533491 -0.0019429439 -0.13383213
0.15668856 -0.07478578 -0.03732634 -0.12735115 0.060626883 -0.120679416 0.14235076 0.01845044
0.09350038 0.114219576 0.012649759 0.15423307 0.12519245 0.015029737 -0.08791195 0.054811582
0.14250562 -0.12973754 -0.051762212 -0.06653299 -0.12921195 0.16579485 -0.10317966 0.06980711
0.023683954 0.08649255 0.16542496 0.05107883 -0.011795112 -0.009648602 -0.21785447 -0.09655317
0.18521717 -0.081816375 -0.18001598 0.14210087 0.008967747 0.0636418 -0.016047573 0.11263906
-0.11070883 -0.1586686 0.1808913 0.13688086 0.051447857 0.022830477 -0.11264817 -0.0013861934
0.08989358 0.029638713 0.09545101 0.044959374 0.0075462842 0.13128605 -0.05584571 0.15685534
0.06234838 0.083491385 -0.021133903 0.11616149 -0.058534645 0.060372233 -0.15121062 0.087728225
0.027381338 -0.060087424 -0.14576662 -0.102123655 -0.0070558246 0.15560497 0.005302138 -0.15445209
0.042457763 0.14132881 -0.0906911 -0.10468337 -0.19827741 -0.062587395 -0.0980417 0.037280288
0.007212909 -0.036010098 0.07686549 0.0013763775 0.12000097 -0.06305512 0.0829727 0.03739255
0.051155135 -0.0046062195 0.15375414 -0.058387075 -0.078510374 0.060492575 -0.13570806 -0.022910638
00000000: 897e efbd 1c81 d03c 0aef ddbc f7ed a9bd
00000010: 5ec2 363d 7007 b3bd 9107 393d a03a 0bbe
00000020: 5641 2e3e 43ac f9bd fa2d 1f3e 9933 29be
00000030: 1ae8 8dba 0247 edbd ad1c 87bd fc1c b4bd
00000040: 9658 03be c8b7 00be d41f 28be 4010 cb3d
00000050: 7bf2 103c 906d 5f3c ea74 4e3e b3f8 a93d
00000060: abd8 a9bd a7de 373d 25eb fb3c e043 933d
00000070: f910 08be 0518 1f3e 19f7 f2bd 01f5 2b3e
00000080: c127 06bd fca1 3b3c 63d7 0d3e 12bd 8abd
00000090: 5b94 033e 79d0 34be b058 09bd f17e 1bbe
000000a0: e83a 76bd 65fa 90bd a750 a33d 1488 2fbe
000000b0: fd5d f53d 21c6 1cbc 5f43 e2bd f332 2f3e
000000c0: bea4 acbc dcec 5b3d 020a 4ebe 187e 03be
000000d0: 8559 7fbd d390 bf3d d6d6 37be 6ba7 ba3c
000000e0: 378c 183e 4372 cd3b 7ffc 7eba 2222 f7bd
000000f0: 48a6 e4bd d84e f7bd d20e ddbc 2285 bcbd
00000100: 1176 9a3c 730d 993d 98c1 d33d 4a73 50bd
00000110: b140 293e 99a0 8cbd 3a07 83bd e2de fcbd
00000120: 78b4 fa3d e0c6 303e adea 213c 9189 963d
00000130: dcd4 c53d 8f88 11bc 6b5c fabd fd15 0d3e
00000140: a589 7dbc 57bb e7bd f36c ad3d 0341 303e
00000150: d3ab 1abe 9699 803d a842 8f39 5a17 e03d
00000160: 0b65 903d 10e5 5fbd 59d7 383e cdc8 efbd
00000170: 4881 033e 8c4c 883d a6e7 433d 8b8a efbd
00000180: 2e51 ea3d 6541 0e3e 1217 dabc 5f8b 90bd
00000190: 1772 853b e509 a0bd e64a 883c 370d bbbc
000001a0: 4b8e 223e d468 d83d da86 59be f0aa 2b3d
000001b0: 8106 943d 6efc 9bbc 47c7 16bd 6b22 23bd
000001c0: 26ab 163e 962e 07be c7f1 20bd d693 a5bd
000001d0: f5e7 64be 2f41 2dbc 32df 9bbd 66d7 01be
000001e0: d06b 9fbd 4eab 97bb 9611 0c3e 62ea 633d
000001f0: cc38 423e 0b0a 4b3e a441 f1bd 653d 01be
00000200: e913 673e f7f6 ef3c ec6c 6ebe 153f 6dbe
00000210: a975 03be a753 babd a3dc 23be 9d42 503e
00000220: 8017 303e b41d 96bd e05c 80bd 9c55 80bd
00000230: cf1d 093e 1107 25be 6ff3 9f3c 15a8 203e
00000240: b87d c73c d267 12bd 7229 23be 7f10 11bd
00000250: 00a7 e9bd 7b09 d83d 8925 68bd 8ad1 0b3d
00000260: 052a b2b9 ab45 9cbd 7cfd 303e b8c1 98bc
00000270: 76d2 14be 0167 b0bc 61aa feba 4a0b 09be
00000280: f772 203e 4929 99bd 81e3 18bd 5768 02be
00000290: e553 783d c526 f7bd 66c4 113e 6125 973c
000002a0: 217d bf3d f4eb e93d ef40 4f3c 46ef 1d3e
000002b0: 7332 003e 493f 763c 2e0b b4bd 1c82 603d
000002c0: feec 113e ebd9 04be 9d04 54bd 7342 88bd
000002d0: 2350 04be 20c6 293e dc4f d3bd 08f7 8e3d
000002e0: da04 c23c 0223 b13d 2965 293e 0938 513d
000002f0: 4940 41bc 2c15 1ebc 3e15 5fbe abbd c5bd
00000300: 92a9 3d3e 588f a7bd 1c56 38be e482 113e
00000310: 75ed 123c a256 823d 3376 83bc 4faf e63d
00000320: 50bb e2bd 057a 22be 923b 393e 7f2a 0c3e
00000330: fdba 523d fb06 bb3c 15b4 e6bd efb0 b5ba
00000340: 201a b83d e3cc f23c d27b c33d 5227 383d
00000350: d246 f73b da6f 063e 79be 64bd b09e 203e
00000360: 0461 7f3d 88fd aa3d 0221 adbc 13e6 ed3d
00000370: 06c2 6fbd e048 773d f5d6 1abe dbaa b33d
00000380: d44e e03c 3b1e 76bd d843 15be 3526 d1bd
00000390: 8c34 e7bb e956 1f3e 8fbd ad3b b028 1ebe
000003a0: 31e8 2d3d 80b8 103e 41bc b9bd 3c64 d6bd
000003b0: 3c09 4bbe d22d 80bd 16ca c8bd 37b3 183d
000003c0: 445a ec3b 537f 13bd a76b 9d3d 9167 b43a
000003d0: 12c3 f53d 0b23 81bd 97ed a93d ee28 193d
000003e0: 0c88 513d c5ef 96bb ba71 1d3e 4927 6fbd
000003f0: 0cca a0bd 10c7 773d 0ef7 0abe 17af bbbc

lstm.bias_ih_l0_reverse f4 [128]
0.01670813 -0.09921581 0.06785162 0.2291061 -0.04509777 0.10918644 0.15355718 0.18263283
0.045273382 -0.12103279 -0.0761863 0.09564146 -0.0015798899 0.115967035 0.015858795 0.114241
0.19284047 -0.011025969 0.056844816 0.06910347 0.06302443 -0.0022764269 0.08884447 -0.08423374
-0.15537186 0.17685448 -0.090934165 -0.04459951 0.23676565 0.0057189544 0.17674848 -0.07848608
0.03381677 -0.15898442 0.0450965 0.14079197 -0.16842173 0.14391842 -0.15642042 0.017776897
0.014751437 -0.14338227 -0.028913207 -0.039625734 -0.20603395 -0.1801951 -0.076041855 0.038755007
-0.2044823 0.040229764 -0.1484927 -0.12193234 0.06498476 -0.0025431425 -0.06701095 0.12638463
0.047295433 0.021773515 0.07614347 0.0831858 0.174684 -0.08659477 0.12814882 -0.10080211
0.09258922 -0.19781981 -0.1714416 -0.07242497 0.1226586 0.09561169 0.10067694 0.078948885
0.012459946 -0.013257566 -0.06255504 -0.14696245 0.036167357 -0.22549295 -0.09674911 0.12147199
-0.102192566 -0.16985923 -0.11761455 0.18395275 -0.19689764 0.11376935 -0.066786095 -0.022239279
0.09293416 0.17763935 0.04746205 -0.096580036 0.16087943 -0.028329736 -0.1652588 -0.12416099
-0.06228385 0.10060206 -0.07650654 -0.12123899 0.09588669 0.10408932 0.17700863 -0.12632868
0.0011020749 0.04782537 0.082644194 0.056942105 0.12979592 0.22994357 0.20458403 0.07677083
-0.095082864 0.23551372 0.16368246 -0.12025414 -0.07565861 0.113035835 0.052286066 -0.078157954
0.111293934 -0.0270175 0.10537416 0.23038787 -0.1061065 0.06864032 0.054714177 0.08244417
00000000: 7ddf 883c a931 cbbd caf5 8a3d ca9a 6a3e
00000010: 70b8 38bd 249d df3d 183e 1d3e 1a04 3b3e
00000020: 9570 393d 0ae0 f7bd 9007 9cbd abdf c33d
00000030: 4f14 cfba 2080 ed3d 4eea 813c 2ff7 e93d
00000040: f977 453e 44a6 34bc 1cd6 683d 1f86 8d3d
00000050: f412 813d 1b30 15bb 17f4 b53d bd82 acbd
00000060: cd19 1fbe 5719 353e b13b babd faad 36bd
00000070: b272 723e 1166 bb3b 8efd 343e 4fbd a0bd
00000080: 7483 0a3d d0cc 22be 1cb7 383d c52b 103e
00000090: bf76 2cbe 5a5f 133e ad2c 20be dba0 913c
000000a0: 03b0 713c cdd2 12be 64db ecbc 984e 22bd
000000b0: 90fa 52be 1085 38be d5bb 9bbd 92bd 1e3d
000000c0: cf63 51be f7c7 243d 780e 18be aab7 f9bd
000000d0: bb16 853d daaa 26bb 093d 89bd f96a 013e
000000e0: dbb8 413d 5f5e b23c 1cf1 9b3d 515d aa3d
000000f0: 5de0 323e 9958 b1bd 7239 033e 5671 cebd
00000100: 6b9f bd3d 4791 4abe 638e 2fbe 8b53 94bd
00000110: 6f34 fb3d 10d0 c33d b62f ce3d f4af a13d
00000120: cd24 4c3c 4336 59bc db1c 80bd 537d 16be
00000130: 3924 143d a0e7 66be 6624 c6bd 4fc6 f83d
00000140: 564a d1bd 94ef 2dbe e6df f0bd 1c5e 3c3e
00000150: 899f 49be e8ff e83d 26c7 88bd 262f b6bc
00000160: 4454 be3d 17e7 353e 9167 423d c1cb c5bd
00000170: 94bd 243e c313 e8bc 9a39 29be 1e48 febd
00000180: 5a1d 7fbd 7408 ce3d 76af 9cbd 264c f8bd
00000190: 3e60 c43d c82c d53d c041 353e 4e5c 01be
000001a0: 7f73 903a 89e4 433d 5c41 a93d 203c 693d
000001b0: 39e9 043e 5476 6b3e 7a7e 513e 063a 9d3d
000001c0: ceba c2bd 822a 713e 609c 273e cd47 f6bd
000001d0: e7f2 9abd 557f e73d ea29 563d 4711 a0bd
000001e0: 13ee e33d ce53 ddbc 68ce d73d ccea 6b3e
000001f0: 5d4e d9bd 4c93 8c3d f91b 603d 7dd8 a83d

lstm.bias_hh_l0_reverse f4 [128]
-0.01832576 0.046693183 0.012578329 -0.060360137 0.23473705 0.08054142 0.056602854 0.14348292
0.08745253 0.024487045 -0.15411712 -0.030238621 -0.17410323 0.01699929 0.022464626 0.16123985
-0.117325835 0.040952813 0.22774236 0.029149428 -0.08288112 0.13722238 -0.00014334034 0.06258789
0.014755806 0.18902738 0.15713029 -0.03077071 0.10803151 0.18636842 -0.022960514 0.049934298
-0.11485739 -0.1669591 0.13595186 0.024406737 0.09711649 0.10877521 -0.08561978 0.15664661
-0.14345632 0.06383498 -0.14444734 0.033123948 0.0646269 -0.0050385394 -0.20159285 0.16705357
-0.12912111 0.19024938 -0.11688024 0.2163558 0.10143971 -0.09854917 -0.2142387 0.17689145
-0.12115647 0.07965422 -0.084658235 -0.029064925 -0.005112357 0.019088933 -0.12600733 0.024502728
0.07060834 -0.08145559 -0.19904073 -0.08583541 -0.16967627 -0.19772154 0.037945546 0.071744226
-0.054113783 0.12173723 -0.18675631 -0.096128315 -0.0895543 0.044615306 -0.12126291 0.16075923
-0.11300169 0.0955789 -0.19900781 0.19598001 -0.15096395 -0.09800519 0.16234002 0.07872727
0.045149047 -0.0001559426 0.105174005 0.10301983 0.16174048 -0.09588736 0.07636719 0.0959124
0.16495407 0.008874666 0.14656885 0.14694148 0.088756755 -0.053506643 0.007434747 0.06890727
0.17053175 0.08992035 0.15143365 -0.034813415 -0.06295357 0.022424439 -0.07995402 -0.056513578
0.09200078 0.17677322 -0.021755796 -0.10449065 0.08530687 0.12757733 -0.01698687 -0.028477298
-0.14508969 0.014158534 0.1184508 0.07512712 -0.01190238 -0.01722776 0.12949486 0.033796765
00000000: e71f 96bc 5a41 3f3d 5615 4e3c 313c 77bd
00000010: e95e 703e e6f2 a43d 65d8 673d 30ed 123e
00000020: 501a b33d 0e99 c83c e1d0 1dbe fcb6 f7bc
00000030: 1e48 32be 1842 8b3c bc07 b83c 0f1c 253e
00000040: 8748 f0bd 23be 273d 4b35 693e c8ca ee3c
00000050: 94bd a9bd 0684 0c3e a14d 16b9 142e 803d
00000060: 56c2 713c 6590 413e c3e6 203e db12 fcbc
00000070: a03f dd3d 5dd7 3e3e b017 bcbc e887 4c3d
00000080: 5a3a ebbd 54f7 2abe f736 0b3e a3f0 c73c
00000090: 03e5 c63d 8ac5 de3d 6c59 afbd f867 203e
000000a0: 37e6 12be eabb 823d 01ea 13be faac 073d
000000b0: 1c5b 843d 551a a5bb 5b6e 4ebe 1710 2b3e
000000c0: 5338 04be bcd0 423e e85e efbd 608c 5d3e
000000d0: 9fbf cf3d 26d4 c9bd 6461 5bbe 0823 353e
000000e0: e220 f8bd c021 a33d 4c61 adbd 9119 eebc
000000f0: 8f85 a7bb 6560 9c3c 1108 01be f2b9 c83c
00000100: 1b9b 903d 30d2 a6bd 55d1 4bbe 7aca afbd
00000110: 9ebf 2dbe 8477 4abe ca6c 1b3d a3ee 923d
00000120: 6aa6 5dbd 5e51 f93d 0c3d 3fbe ecde c4bd
00000130: 3f68 b7bd 8abe 363d b058 f8bd 119e 243e
00000140: 6e6d e7bd dfbe c33d b4c8 4bbe fcae 483e
00000150: 4b96 1abe f2b6 c8bd 763c 263e c33b a13d
00000160: 35ee 383d 8684 23b9 7865 d73d 10fc d23d
00000170: 4c9f 253e 9860 c4bd 6766 9c3d b86d c43d
00000180: b8e9 283e 0c67 113c 2516 163e d477 163e
00000190: 1ac6 b53d c829 5bbd 2e9f f33b 411f 8d3d
000001a0: e09f 2e3e 2928 b83d 6c11 1b3e 8398 0ebd
000001b0: cded 80bd 75b3 b73c efbe a3bd c87a 67bd
000001c0: e86a bc3d 0a04 353e 3639 b2bc 32ff d5bd
000001d0: 5eb5 ae3d a2a3 023e 0c28 8bbc 3949 e9bc
000001e0: 6492 14be 32f9 673c 5596 f23d 3fdc 993d
000001f0: 3302 43bc 3b21 8dbc 4d9a 043e 7a6e 0a3d

classifier.0.weight f4 [32, 64]
-0.009226016 -0.0079051275 -0.102273874 0.034248404 0.089316726 0.0645898 -0.06867201 0.09454437
0.004400171 0.11744095 0.019818036 -0.05839517 0.008328006 0.13553375 0.1054533 0.14711092
-0.111001946 0.046835877 -0.11617794 -0.008187042 -0.068213895 -0.14052616 -0.15818809 0.021266308
-0.148307 -0.042457536 0.110906824 -0.185675 -0.06472912 0.057243742 0.062011912 0.012552531
-0.09566554 0.06833798 -0.07761992 -0.04266852 -0.021311682 -0.008600522 0.053535666 0.021600604
0.010378646 0.08803262 -0.0845428 0.158921 0.08400725 0.14378794 0.11096253 0.004161956
-0.004406484 -0.05280276 -0.103750184 -0.028212633 -0.09816237 -0.08183817 -0.09809147 -0.041852612
0.021914717 0.10713132 0.026459027 -0.19197501 0.02556728 0.10011425 -0.012204559 -0.045711894
0.15511148 -0.021446288 -0.0790196 -0.10365776 -0.118242756 -0.019128252 0.03644497 0.08758998
0.11342049 0.18528016 -0.023670759 -0.014554433 0.1463199 0.12256451 0.09103792 -0.05478689
0.016738232 0.177903 -0.06494626 0.010067682 -0.103777505 -0.07303579 -0.11117412 -0.04029608
-0.13746941 -0.068857014 0.12124993 -0.154774 -0.12079289 -0.10869697 -0.00027991083 -0.061805967
-0.089575134 -0.026540643 -0.07829487 -0.1435125 0.1442695 -0.11230819 0.14886394 0.10606219
-0.10566797 -0.15087096 -0.040176842 0.07168073 -0.0635649 0.14970525 0.03574685 -0.047204264
-0.060643803 0.081796095 -0.12910184 0.051217843 0.07760753 -0.12500069 0.031383816 0.053080764
0.055545166 0.1225199 -0.044151414 -0.09337862 -0.04426794 0.013674913 0.06472711 0.07875883
-0.13411032 -0.12056376 0.10977798 0.13063316 -0.0132811135 0.1453369 -0.13140087 0.028741805
-0.08479441 0.12833962 0.00577785 0.03979623 -0.08000564 0.05252533 -0.006776185 0.05854167
-0.15613014 -0.061216578 0.057754185 -0.09191176 0.07063128 0.1150072 0.008189676 -0.034030512
-0.049632132 0.04464574 -0.09947278 0.09833244 -0.13957117 0.17081152 0.030449491 0.09516215
-0.06037944 0.06844107 -0.17081383 0.02722359 -0.15398702 0.072443224 -0.089176774 0.15266606
0.18497929 0.0307968 -0.057149943 -0.08075966 -0.09097374 0.051580902 -0.15951753 0.101731
-0.12804665 0.055013247 -0.09510353 0.0016670921 0.032151897 0.068430156 0.1791945 0.10847776
-0.100063644 0.13487642 0.030952603 0.16016425 0.030119268 -0.14746042 0.055350337 0.010249797
0.083107404 -0.13353215 -0.06549425 0.11842592 -0.033503972 0.14537683 0.10822599 -0.04956818
-0.016928544 -0.033541296 -0.1538908 0.012931037 -0.15849881 -0.16973133 -0.060921654 -0.080895066
-0.009638246 0.044122886 0.06114431 0.14340743 0.046814427 -0.013697017 -0.09756543 0.031677976
0.09769486 0.08880089 0.062594324 -0.0053940043 0.019129205 0.022721933 -0.07123938 0.13293758
-0.027777258 -0.05357762 0.06455511 -0.11962632 -0.0941019 0.019104753 -0.16424473 0.078975864
0.1357367 0.09036352 0.06705441 0.030009774 -0.046142332 -0.0011711096 0.020723607 0.03216614
-0.05757691 -0.17367612 0.03557379 0.13685606 0.00443746 0.11591485 0.15583807 -0.018888356
-0.0068949936 -0.058743943 0.0048119896 0.10060554 0.14454098 -0.13175668 0.09773231 -0.02902669
00000000: b728 17bc 8284 01bc f774 d1bd 0e48 0c3d
00000010: b0eb b63d a847 843d e9a3 8cbd 7ba0 c13d
00000020: 4f2f 903b e184 f03d 6f59 a23c c62f 6fbd
00000030: 3072 083c 5cc9 0a3e e6f7 d73d 3fa4 163e
00000040: fd54 e3bd fad6 3f3d b3ee edbd f122 06bc
00000050: bab3 8bbd 17e6 0fbe 0ffc 21be ae36 ae3c
00000060: cadd 17be f4e7 2dbd 1e23 e33d 9621 3ebe
00000070: b390 84bd 6a78 6a3d 3400 7e3d 22a9 4d3c
00000080: 4bec c3bd c8f4 8b3d 31f7 9ebd 30c5 2ebd
00000090: d695 aebc 34e9 0cbc 3748 5b3d c0f3 b03c
000000a0: 320b 2a3c 724a b43d c724 adbd 30bc 223e
000000b0: fe0b ac3d 253d 133e 5340 e33d 0461 883b
000000c0: 4464 90bb b547 58bd fa7a d4bd 2e1e e7bc
000000d0: 5a09 c9bd c59a a7bd 2ee4 c8bd a56d 2bbd
000000e0: 7e86 b33c aa67 db3d 9ac0 d83c 1995 44be
000000f0: 7972 d13c b308 cd3d a1f5 47bc 653c 3bbd
00000100: 8bd5 1e3e 20b0 afbc 07d5 a1bd 854a d4bd
00000110: 4229 f2bd dab2 9cbc 5247 153d 6062 b33d
00000120: 0049 e83d 15ba 3d3e 2ee9 c1bc b775 6ebc
00000130: e2d4 153e 1a03 fb3d 1772 ba3d 3868 60bd
00000140: 9e1e 893c 342c 363e 8b02 85bd ebf2 243c
00000150: 4d89 d4bd ca93 95bd 42af e3bd 810d 25bd
00000160: c8c4 0cbe e804 8dbd e251 f83d 137d 1ebe
00000170: 4362 f7bd 849c debd ffc0 92b9 4128 7dbd
00000180: 2b73 b7bd c36b d9bc 1059 a0bd f1f4 12be
00000190: 62bb 133e d601 e6bd ca6f 183e 2237 d93d
000001a0: 7368 d8bd eb7d 1abe 7990 24bd 59cd 923d
000001b0: 502e 82bd 554c 193e 4a6b 123d 4259 41bd
000001c0: a365 78bd b684 a73d 4633 04be cdc9 513d
000001d0: b2f0 9e3d 2e00 00be 518c 003d 376b 593d
000001e0: 5483 633d b7eb fa3d 1dd8 34bd 4a3d bfbd
000001f0: 4d52 35bd be0c 603c a68f 843d 4f4c a13d
00000200: 3754 09be 22ea f6bd 47d3 e03d b3c4 053e
00000210: 0799 59bc 32d3 143e f38d 06be ef73 eb3c
00000220: b1a8 adbd 766b 033e 1e54 bd3b 5f01 233d
00000230: ffd9 a3bd cd24 573d c20a debb 64c9 6f3d
00000240: 94e0 1fbe 3cbe 7abd a78f 6c3d 3c3c bcbd
00000250: 22a7 903d e588 eb3d fe2d 063c 9463 0bbd
00000260: 104b 4bbd 74de 363d 63b8 cbbd 8562 c93d
00000270: bfeb 0ebe 37e9 2e3e 3671 f93c 60e4 c23d
00000280: 6f50 77bd d52a 8c3d d2e9 2ebe 0204 df3c
00000290: c6ae 1dbe 1d5d 943d 50a2 b6bd 7e54 1c3e
000002a0: 366b 3d3e 9249 fc3c 0f16 6abd 5265 a5bd
000002b0: 7150 babd 7f46 533d 9058 23be 5858 d03d
000002c0: a91e 03be 9255 613d a4c5 c2bd 5482 da3a
000002d0: b5b1 033d 1c25 8c3d c37e 373e 9629 de3d
000002e0: 2bee ccbd 0b1d 0a3e 5090 fd3c 1902 243e
000002f0: afbc f63c ddff 16be 09b7 623d c4ee 273c
00000300: 3734 aa3d a7bc 08be d921 86bd 4a89 f23d
00000310: 763b 09bd aadd 143e 96a5 dd3d 0108 4bbd
00000320: bbad 8abc 9962 09bd 8d95 1dbe b3dc 533c
00000330: 834d 22be 0dce 2dbe fc88 79bd 50ac a5bd
00000340: bce9 1dbc 33ba 343d 7572 7a3d 66d9 123e
00000350: 7cc0 3f3d 7469 60bc 62d0 c7bd c4c0 013d
00000360: 3e14 c83d 3edd b53d 7431 803d 30c0 b0bb
00000370: dab4 9c3c 5923 ba3c f4e5 91bd ca20 083e
00000380: 228d e3bc 3574 5bbd 7835 843d a5fe f4bd
00000390: 7fb8 c0bd 9281 9c3c c52f 28be 19be a13d
000003a0: 90fe 0a3e 8210 b93d d353 893d 0fd7 f53c
000003b0: beff 3cbd eb7f 99ba 8ec4 a93c a4c0 033d
000003c0: c4d5 6bbd 27d8 31be d3b5 113d ff23 0c3e
000003d0: 1d68 913b c464 ed3d 0494 1f3e c1bb 9abc
000003e0: 66ef e1bb 7d9d 70bd e5ad 9d3b 470a ce3d
000003f0: 8d02 143e 39eb 06be e127 c83d 62c9 edbc

classifier.0.bias f4 [32]
-0.04278086 0.16670617 -0.03765425 0.11489445 0.082491495 -0.031111509 0.10167725 -0.033322535
-0.037668496 -0.046691854 0.06807209 0.033193033 -0.060220808 0.09270801 0.011055427 -0.03262522
0.074894615 -0.0027008539 0.13435401 0.068319045 0.13621098 0.05915451 0.054079387 0.0726508
0.06800324 0.029707564 0.13498105 -0.00019765501 0.14558254 0.059547685 0.021264702 -0.028563242
00000000: fc3a 2fbd 06b5 2a3e 583b 1abd c84d eb3d
00000010: 4df1 a83d 90dd febc 293c d03d 367d 08bd
00000020: 484a 1abd f53f 3fbd 6169 8b3d 6bf5 073d
00000030: 18aa 76bd b2dd bd3d d221 353c 06a2 05bd
00000040: 5962 993d cf00 31bb 1994 093e dbea 8b3d
00000050: e47a 0b3e 004c 723d 5982 5d3d f1c9 943d
00000060: 4845 8b3d 475d f33c 7938 0a3e 9d41 4fb9
00000070: 9713 153e 46e8 733d 5033 ae3c 76fd e9bc
